data.pth (torch, 6975 bytes, 6 tensors)

l1.weight f4 [8, 91]
00000000: 8176 16be 29cc bd3e 7967 b83e 13a9 88be
00000010: c1b8 9d3c 599b 0e3f e4fe eb3e e275 32bf
00000020: b134 fb3e 83e2 f63e b730 c23d 33f5 6a3e
00000030: d146 1e3f a336 32bf 66ac 2d3e e1ab 13bf
00000040: 2e3d 32bf 75b4 623f 3bf4 1a3f f5a6 2abf
00000050: af4a 3a3f 96bc 193f cf30 5e3f 160c 0c3c
00000060: 5c8c 143f 6bfc 043f b78e 55be e06e 32bf
00000070: 7e32 ffbc f3ff c8be 253f 663f b58a 34be
00000080: afd1 3c3f e220 433f 8735 d63e 4683 c43e
00000090: c675 babe 2284 22bd 875e 2a3f 4821 e53d
000000a0: 6078 233f af3a dd3e 47e9 843e a109 8fbe
000000b0: db5c 193f 60fc 953d bf95 9f3f 938d 9f3e
000000c0: 48e2 193f 0a50 b43e 64a7 b03f 74a6 6f3f
000000d0: 40c3 0f3f 3a5c c7be 8475 8d3e 5fe7 823e
000000e0: 59c8 dbbe 62db 35ba fc21 ffbe 4e5b 32bf
000000f0: c737 0bbf 2c96 68be 5386 84bd 0181 32bf
00000100: 7b80 32bf 1783 32bf 0a29 873f 8176 783e
00000110: aecc a63e e79c 8b3e 0bbc 043f b680 13be
00000120: 0694 523f 7ae5 193f 64ae 433f f4b6 70bf
00000130: 7072 6abe 6699 113f 76a0 9bbe 8728 31bf
00000140: 8966 4dbe 19d2 f7bd 7122 bc3e 1239 47be
00000150: 7e4d 803e 2750 32bf 5205 9ebe 9172 32bf
00000160: cffa 593f 49dd c53e cdfc 853e afcb 00be
00000170: a918 4cbd bdc8 fb3e 45ae bdbe 3d01 043f
00000180: 956a ffbe 96db d53e 3e3e 913f 38fc 973f
00000190: ff2a 8e3f a0ad 033e 5d73 d83e 0f0d 093f
000001a0: a97e 45bf 3262 083f dd53 17bf 868a 45bf
000001b0: 2d83 123e d940 143f 347c 45bf 0a24 4d3f
000001c0: 1f2b 0f3f 97ac 273f 42e1 8fbe 4010 2d3e
000001d0: 90e7 c63e d79a 9a3f 54d5 45bf 5fed 683f
000001e0: c85b 14bf 69f4 0dbe 5e4b 85bd c365 abbd
000001f0: 0883 19be 5ac9 033f 5484 3d3f b62f 2f3f
00000200: 27b5 6dbd dede 5d3f b97a 543f 26b7 003f
00000210: 4609 843e 8fec 3e3f dcd3 24bd 9995 3b3f
00000220: 732e 523e 7a3f e4be 7ba2 1b3f 6a83 bf3e
00000230: dad2 c93e 4e99 c53d 9b93 163f 2071 083f
00000240: 4046 b0be a849 053f b76a 093f e256 b3be
00000250: 72ee 71bc 0624 28bf 6292 45bf 5976 2bbf
00000260: b761 28be c4f5 ca3e ea5b 323f b216 243f
00000270: 93dc 4f3f 6395 45bf 5d5e 1b3f 8038 d23e
00000280: 1fef 8ebd f353 983e dfc2 05bf 8199 073f
00000290: 65d2 393f 0829 e43e 0eee 8bbe 7353 55bd
000002a0: 6e16 e8be f689 9dbd 5d5f 45bf b528 82be
000002b0: 885b b8be 520a 943e 4d57 f2be 38b8 fa3e
000002c0: ab67 963f 315a dbbe 0c99 45bf a4dd 2f3f
000002d0: fa15 aa3e a210 883f 7041 c8be 5ef5 473f
000002e0: 61ff 9cbe bf25 d8bd 7ebc a43e e6da 8ebe
000002f0: 6299 d0be 63f9 213f 78ea ef3e 7a0a 223f
00000300: 5c61 11bd ab56 20bd 54bf 5fbe e279 44be
00000310: 3465 60be c689 4f3f 0f33 2fbe 5585 6dbf
00000320: 8219 9abe 1b61 62be af4f 1cbe 1cb5 26be
00000330: 4c1d 603f 9c82 3d3f 3c77 e53e 2bd7 c0be
00000340: f009 be3e e223 133f 742c b53e ef60 013f
00000350: 06d8 0abf 5b63 6fbe 9eb8 18bf 1b5d 1cbf
00000360: e2a4 89be 8532 ec3e 9615 043f 0ba9 bd3e
00000370: 9321 ddbe 50f1 333f 114e 1a3f 4a42 1b3f
00000380: 02fc 033f 1895 d23d 18ff d4bd 1a02 b8be
00000390: 2ed1 76be 0ef1 87be 6e6d e13e d9da 9ebe
000003a0: 0089 99be 9cd0 3b3f c28a 10be 5fda ea3e
000003b0: ec33 08bf b1a2 c3be 751c 4dbe c12a bf3e
000003c0: 0bbb 5c3f fd2c 63be 4bfb 513f f33c e03e
000003d0: a875 4a3e a8e2 403f 6d41 483f 8bf9 473f
000003e0: c99d dbbe 25bd ec3e 15ce f8bd 4a6f bf3e
000003f0: 425e f33e 27ac 543f 821d 603f 25e1 a1be
-0.14693643 0.37069824 0.36016443 -0.26691493 0.019253137 0.5570579 0.46092904 -0.69711125
0.49063638 0.4821969 0.09481948 0.22945099 0.6182681 -0.6961462 0.16960296 -0.5768414
-0.696246 0.88556606 0.60528916 -0.66661006 0.7277021 0.60053384 0.86793226 0.008547803
0.5802667 0.5194766 -0.20855223 -0.6970043 -0.031152006 -0.39257774 0.899401 -0.17631038
0.7375745 0.7622205 0.41837713 0.38381404 -0.3641798 -0.039676793 0.6655049 0.111879885
0.6385555 0.43208835 0.25959226 -0.27937034 0.5990731 0.07323527 1.2467574 0.311627
0.601109 0.35217315 1.3801084 0.9361336 0.561573 -0.3893755 0.2762872 0.25567147
-0.4292629 -0.00069372926 -0.49830616 -0.6967057 -0.54381984 -0.22713536 -0.06470933 -0.69728094
-0.69727296 -0.6973128 1.0559399 0.24263956 0.32578033 0.27268144 0.5184943 -0.14404568
0.82257116 0.6011578 0.76437974 -0.94029164 -0.22895217 0.5687469 -0.3039586 -0.69202465
-0.20058645 -0.1210062 0.36745027 -0.19455364 0.25059122 -0.6965355 -0.30863434 -0.69706064
0.8514833 0.3864539 0.26169434 -0.12577699 -0.049828205 0.4917659 -0.3704702 0.5156439
-0.49886003 0.41769093 1.134712 1.1873846 1.1106871 0.12859201 0.42275515 0.5353555
-0.77146393 0.53274834 -0.5911234 -0.77164495 0.14307852 0.5791145 -0.77142644 0.80133116
0.5592517 0.65497726 -0.28101546 0.1690073 0.38848543 1.2078503 -0.7727864 0.909872
-0.5795255 -0.13862766 -0.06508516 -0.08369019 -0.1499139 0.51479113 0.7403004 0.68432176
-0.05803409 0.86668193 0.8299976 0.5027946 0.25788325 0.7457971 -0.040241107 0.7327514
0.20525531 -0.4457968 0.607948 0.37404948 0.3941868 0.09648381 0.5881898 0.53297615
-0.34428596 0.52065516 0.5367846 -0.35027224 -0.014766322 -0.6567997 -0.7717649 -0.6697746
-0.16443525 0.3964063 0.696715 0.6409713 0.81195945 -0.7718107 0.6069086 0.4105873
-0.069792025 0.29751548 -0.52250475 0.52968603 0.7258666 0.44562554 -0.2733006 -0.052081537
-0.45329612 -0.076923296 -0.7709864 -0.25421682 -0.36007333 0.28914124 -0.4733223 0.48968673
1.1750387 -0.42842248 -0.77186656 0.6869757 0.33219892 1.0630076 -0.39112425 0.78108776
-0.3066359 -0.105540745 0.32175058 -0.2790138 -0.40742022 0.6327116 0.46858573 0.63297236
-0.03549324 -0.039145153 -0.2185033 -0.1918712 -0.21913606 0.810696 -0.17109321 -0.92781574
-0.30097586 -0.22107355 -0.15264772 -0.16280025 0.87544703 0.7402742 0.4481753 -0.3766416
0.37116957 0.5747663 0.35385478 0.50538534 -0.54235876 -0.23377745 -0.59656703 -0.6107957
-0.26883608 0.46132293 0.5159544 0.37043032 -0.43189678 0.7029009 0.6027537 0.60648024
0.5155641 0.102823436 -0.10400218 -0.35939103 -0.24103233 -0.26551098 0.440288 -0.31026343
-0.29987335 0.7336519 -0.14115432 0.4586973 -0.53204226 -0.3821006 -0.20030387 0.37337306
0.86222905 -0.2218513 0.8202407 0.437965 0.19771445 0.7534585 0.7822483 0.7811515
-0.42893818 0.46238056 -0.12148682 0.37389594 0.4753285 0.83075184 0.87545025 -0.31617084

l1.bias f4 [8]
00000000: fc31 323f dae1 443f 12cd 773f 5d62 e13e
00000010: e315 173f 93e5 5d3f 1918 743f a585 783f
0.6960752 0.7690712 0.9679729 0.44020358 0.5901777 0.8667843 0.9534927 0.97078925

l2.weight f4 [8, 8]
00000000: a6c3 e2bf 2f04 fd3e da90 433f ad21 07be
00000010: 9c30 42bf 7974 f33f e04a 4d3f 7bca 473e
00000020: 1872 ad3f 4797 01bf ff34 943e f1bc 75bf
00000030: a1f7 b83f a33f c53f 1e03 8ebf a7df ad3e
00000040: 32de 8f3e b139 7b3f d904 0e40 9b89 c7bf
00000050: ec72 543f 62fd 5dbf 695e 4dbf 4f34 233f
00000060: 719c c4be 0e9b 013f f305 8d3f 900b 34bf
00000070: f28b 963f 6bb1 2abf 7a25 ed3f e5be 82be
00000080: 871c 1ebe 5d86 abbf c491 8bbe be97 4e3f
00000090: c38d 9dbd a1e4 a43f 2f6e 9f3f 0f2e db3f
000000a0: e945 813e 925a b3be 0745 8c3e 7f54 6abe
000000b0: 53c3 c8bd 5fa1 663d 81f7 b2be e2e5 a8be
000000c0: 4725 f63f 0976 f13f 9f13 8ebf 69e0 b43f
000000d0: 0397 eb3e 9428 05bf a9dd 9ebd 9e06 953f
000000e0: 6da0 613f 1ae2 df3e 3c80 583f c8db 503e
000000f0: 64bd d4bf 000e ba3f aca7 493e 431a 2ebe
-1.7715957 0.49417254 0.763929 -0.1319644 -0.7585542 1.901992 0.80192375 0.19510834
1.3550444 -0.50621456 0.28946683 -0.95991427 1.445057 1.5410045 -1.1094701 0.33959696
0.2809921 0.98134905 2.2190459 -1.5588869 0.82987857 -0.86714756 -0.80222183 0.6375169
-0.38400605 0.5062722 1.101744 -0.7033014 1.1761458 -0.6667697 1.8527062 -0.25536266
-0.1544057 -1.340038 -0.27259648 0.8070029 -0.076930545 1.2882272 1.24555 1.7123431
0.2524865 -0.35030037 0.27396414 -0.22883795 -0.0980288 0.05630624 -0.34954455 -0.32987887
1.9230126 1.8864146 -1.1099738 1.4130985 0.4601365 -0.5201504 -0.07757122 1.1642644
0.88135415 0.4372719 0.8457067 0.2039634 -1.6620297 1.4535522 0.19692868 -0.17002206

l2.bias f4 [8]
00000000: 5328 313e 1f36 123e 318f 243f 78f3 3a3f
00000010: 4a95 413f bf8d acbe 8d02 233f 92d0 0e3f
0.17300539 0.14278458 0.6428099 0.73027754 0.7561842 -0.33701894 0.6367577 0.55787003

l3.weight f4 [16, 8]
00000000: aa62 93bf 2e7b cbbf fddc 9bbf 7655 9bbf
00000010: a26b a1bf 208f 69bd 7a37 283f 69ce 393f
00000020: 56c1 49c0 caf6 0cc0 9f23 bebe f08f 403f
00000030: 3c95 b7bd 4c06 6f3e 596f c03e d2b4 c3be
00000040: 021f a4bf 412b 1b3f b288 193f b332 c7be
00000050: 702b debf d388 d4bd 49d1 0c3d 82a2 f1bf
00000060: 563f 013f a36f ccbf bb6e 373f ab1e 143f
00000070: df8f b4bf f297 943e 3394 b9bd 4533 93bf
00000080: 6c3e 803e 8428 5dbe 7b8b 80bc 28de a9bf
00000090: b529 d7be 5637 b1be 1214 efbb 2d42 e83e
000000a0: f51a abbf 01c4 05bf 1299 1bc0 1607 a63c
000000b0: 7070 103f ed48 8bbe 22bf 573e af75 9d3e
000000c0: 6634 b6bd 8405 cdbf 9a0d b73e 674c 0d3f
000000d0: 50a2 443f cfea cf3d 45a1 a6bf 1adb eebf
000000e0: e069 25c0 a66d 2b3f 0cee 7dbe 19be 15c0
000000f0: 8f76 ca3e a01c 573e bd76 983d 762f afbd
00000100: 004b 38c0 4d57 1e3f e88e 0dbf 33eb e03e
00000110: 9290 27bf 7ef4 9a3e 52f7 ca3b d7b7 c5be
00000120: a416 a7bf 1035 53be a5b3 cbbd 4757 89bf
00000130: f864 f7be 92ea d03d 151f 503f 1817 c5bf
00000140: 47ca d33e 310b a03e 81ae 243f 61b4 39bf
00000150: f014 7fbc 0f3e 073c b2cb 0cc0 2132 723e
00000160: 32e8 dbbf d950 b93e 4f01 1d3f cef5 0b3f
00000170: 15f7 bbbe f98a 04be efc5 cfbf 3121 9fbf
00000180: 01a3 163f 0e30 dfbe a976 0fc0 bcd8 0b3f
00000190: 1a5b 373f d6da debd 80b4 c3bf c994 94bd
000001a0: 66c5 8a3f 0bf6 0bc0 8b44 d5be 225e 2c3f
000001b0: 70c6 39bf 78d1 e1bd d1e5 d5bf 6433 4d3f
000001c0: d8f8 b53e 3702 18c0 cf5a aabf 144a f3bf
000001d0: b7e1 6f3f 70d9 1e3d f365 87be a428 ab3e
000001e0: 4ffc 1ac0 57a7 4bbf b26c 583f f906 2fbe
000001f0: ea41 e9bf ec49 92be 599e a8bd 2399 7b3f
-1.1514485 -1.5896966 -1.2176815 -1.2135456 -1.2610972 -0.05702126 0.6570965 0.7258058
-3.1524253 -2.2025628 -0.37136552 0.7521963 -0.08964011 0.23342246 0.37584952 -0.38223892
-1.2821963 0.60612875 0.59974205 -0.38905868 -1.7357006 -0.1037766 0.034379277 -1.8877718
0.5048727 -1.5971569 0.71653336 0.57859296 -1.4106406 0.29022175 -0.0906147 -1.1500021
0.25047624 -0.21597487 -0.01569151 -1.3270922 -0.42024007 -0.3461253 -0.0072960937 0.45362988
-1.3367602 -0.52252203 -2.4312177 0.02026705 0.56421566 -0.27204075 0.21069005 0.30753848
-0.08896713 -1.6017308 0.35752565 0.55194706 0.7681017 0.10152208 -1.3017966 -1.8660614
-2.584587 0.66964185 -0.24797839 -2.3397276 0.39543578 0.21007013 0.074445225 -0.08553974
-2.8795776 0.6185196 -0.5529618 0.43929443 -0.6545497 0.30264658 0.0061940337 -0.3861682
-1.3053784 -0.2062571 -0.09946374 -1.072976 -0.4831922 0.10200991 0.8129743 -1.5397673
0.41365263 0.31258538 0.6432877 -0.7254086 -0.015568957 0.008254542 -2.1999326 0.23651935
-1.7180235 0.36194494 0.6133012 0.54671943 -0.36711946 -0.12943639 -1.623228 -1.2432004
0.58842474 -0.4359135 -2.2416174 0.54627585 0.71623385 -0.108815834 -1.5289459 -0.07254941
1.0841491 -2.1868923 -0.41653857 0.67331135 -0.72568417 -0.11026281 -1.6710759 0.8015654
0.35541415 -2.3751352 -1.3308963 -1.9006982 0.9370379 0.038781583 -0.2644497 0.33429444
-2.4216497 -0.79552215 0.84540856 -0.17092504 -1.822324 -0.28572023 -0.082333274 0.98280543

l3.bias f4 [16]
00000000: cc92 67be e818 4abe 2512 d6be 8b40 e73e
00000010: de9e 0cbf 945c 063e 1125 613d 1611 023c
00000020: 7990 0f3e 69da dcbe 343d 7ebe 2514 2cba
00000030: b6fa 923e 05eb 5cbe 42f4 92be dd0f 413e
-0.22614592 -0.19736063 -0.41810718 0.4516643 -0.5492991 0.13121253 0.05496699 0.007938644
0.14019956 -0.43135384 -0.24828035 -0.0006564281 0.28706902 -0.21574028 -0.2870198 0.18853708
